Found 388 images belonging to 4 classes.
Found 32 images belonging to 4 classes.
__________________________________________________________________________________________________
Layer (type)                    Output Shape         Param #     Connected to                     
==================================================================================================
data (InputLayer)               (None, 224, 224, 3)  0                                            
__________________________________________________________________________________________________
conv1_zeropadding (ZeroPadding2 (None, 230, 230, 3)  0           data[0][0]                       
__________________________________________________________________________________________________
conv1 (Conv2D)                  (None, 112, 112, 64) 9408        conv1_zeropadding[0][0]          
__________________________________________________________________________________________________
bn_conv1 (BatchNormalization)   (None, 112, 112, 64) 256         conv1[0][0]                      
__________________________________________________________________________________________________
scale_conv1 (Scale)             (None, 112, 112, 64) 128         bn_conv1[0][0]                   
__________________________________________________________________________________________________
conv1_relu (Activation)         (None, 112, 112, 64) 0           scale_conv1[0][0]                
__________________________________________________________________________________________________
pool1 (MaxPooling2D)            (None, 55, 55, 64)   0           conv1_relu[0][0]                 
__________________________________________________________________________________________________
res1012a_branch2a (Conv2D)      (None, 55, 55, 64)   4096        pool1[0][0]                      
__________________________________________________________________________________________________
bn2a_branch2a (BatchNormalizati (None, 55, 55, 64)   256         res1012a_branch2a[0][0]          
__________________________________________________________________________________________________
scale2a_branch2a (Scale)        (None, 55, 55, 64)   128         bn2a_branch2a[0][0]              
__________________________________________________________________________________________________
res1012a_branch2a_relu (Activat (None, 55, 55, 64)   0           scale2a_branch2a[0][0]           
__________________________________________________________________________________________________
res1012a_branch2b_zeropadding ( (None, 57, 57, 64)   0           res1012a_branch2a_relu[0][0]     
__________________________________________________________________________________________________
res1012a_branch2b (Conv2D)      (None, 55, 55, 64)   36864       res1012a_branch2b_zeropadding[0][
__________________________________________________________________________________________________
bn2a_branch2b (BatchNormalizati (None, 55, 55, 64)   256         res1012a_branch2b[0][0]          
__________________________________________________________________________________________________
scale2a_branch2b (Scale)        (None, 55, 55, 64)   128         bn2a_branch2b[0][0]              
__________________________________________________________________________________________________
res1012a_branch2b_relu (Activat (None, 55, 55, 64)   0           scale2a_branch2b[0][0]           
__________________________________________________________________________________________________
res1012a_branch2c (Conv2D)      (None, 55, 55, 256)  16384       res1012a_branch2b_relu[0][0]     
__________________________________________________________________________________________________
res1012a_branch1 (Conv2D)       (None, 55, 55, 256)  16384       pool1[0][0]                      
__________________________________________________________________________________________________
bn2a_branch2c (BatchNormalizati (None, 55, 55, 256)  1024        res1012a_branch2c[0][0]          
__________________________________________________________________________________________________
bn2a_branch1 (BatchNormalizatio (None, 55, 55, 256)  1024        res1012a_branch1[0][0]           
__________________________________________________________________________________________________
scale2a_branch2c (Scale)        (None, 55, 55, 256)  512         bn2a_branch2c[0][0]              
__________________________________________________________________________________________________
scale2a_branch1 (Scale)         (None, 55, 55, 256)  512         bn2a_branch1[0][0]               
__________________________________________________________________________________________________
add_1 (Add)                     (None, 55, 55, 256)  0           scale2a_branch2c[0][0]           
                                                                 scale2a_branch1[0][0]            
__________________________________________________________________________________________________
res2a_relu (Activation)         (None, 55, 55, 256)  0           add_1[0][0]                      
__________________________________________________________________________________________________
res1012b_branch2a (Conv2D)      (None, 55, 55, 64)   16384       res2a_relu[0][0]                 
__________________________________________________________________________________________________
bn2b_branch2a (BatchNormalizati (None, 55, 55, 64)   256         res1012b_branch2a[0][0]          
__________________________________________________________________________________________________
scale2b_branch2a (Scale)        (None, 55, 55, 64)   128         bn2b_branch2a[0][0]              
__________________________________________________________________________________________________
res1012b_branch2a_relu (Activat (None, 55, 55, 64)   0           scale2b_branch2a[0][0]           
__________________________________________________________________________________________________
res1012b_branch2b_zeropadding ( (None, 57, 57, 64)   0           res1012b_branch2a_relu[0][0]     
__________________________________________________________________________________________________
res1012b_branch2b (Conv2D)      (None, 55, 55, 64)   36864       res1012b_branch2b_zeropadding[0][
__________________________________________________________________________________________________
bn2b_branch2b (BatchNormalizati (None, 55, 55, 64)   256         res1012b_branch2b[0][0]          
__________________________________________________________________________________________________
scale2b_branch2b (Scale)        (None, 55, 55, 64)   128         bn2b_branch2b[0][0]              
__________________________________________________________________________________________________
res1012b_branch2b_relu (Activat (None, 55, 55, 64)   0           scale2b_branch2b[0][0]           
__________________________________________________________________________________________________
res1012b_branch2c (Conv2D)      (None, 55, 55, 256)  16384       res1012b_branch2b_relu[0][0]     
__________________________________________________________________________________________________
bn2b_branch2c (BatchNormalizati (None, 55, 55, 256)  1024        res1012b_branch2c[0][0]          
__________________________________________________________________________________________________
scale2b_branch2c (Scale)        (None, 55, 55, 256)  512         bn2b_branch2c[0][0]              
__________________________________________________________________________________________________
add_2 (Add)                     (None, 55, 55, 256)  0           scale2b_branch2c[0][0]           
                                                                 res2a_relu[0][0]                 
__________________________________________________________________________________________________
res2b_relu (Activation)         (None, 55, 55, 256)  0           add_2[0][0]                      
__________________________________________________________________________________________________
res1012c_branch2a (Conv2D)      (None, 55, 55, 64)   16384       res2b_relu[0][0]                 
__________________________________________________________________________________________________
bn2c_branch2a (BatchNormalizati (None, 55, 55, 64)   256         res1012c_branch2a[0][0]          
__________________________________________________________________________________________________
scale2c_branch2a (Scale)        (None, 55, 55, 64)   128         bn2c_branch2a[0][0]              
__________________________________________________________________________________________________
res1012c_branch2a_relu (Activat (None, 55, 55, 64)   0           scale2c_branch2a[0][0]           
__________________________________________________________________________________________________
res1012c_branch2b_zeropadding ( (None, 57, 57, 64)   0           res1012c_branch2a_relu[0][0]     
__________________________________________________________________________________________________
res1012c_branch2b (Conv2D)      (None, 55, 55, 64)   36864       res1012c_branch2b_zeropadding[0][
__________________________________________________________________________________________________
bn2c_branch2b (BatchNormalizati (None, 55, 55, 64)   256         res1012c_branch2b[0][0]          
__________________________________________________________________________________________________
scale2c_branch2b (Scale)        (None, 55, 55, 64)   128         bn2c_branch2b[0][0]              
__________________________________________________________________________________________________
res1012c_branch2b_relu (Activat (None, 55, 55, 64)   0           scale2c_branch2b[0][0]           
__________________________________________________________________________________________________
res1012c_branch2c (Conv2D)      (None, 55, 55, 256)  16384       res1012c_branch2b_relu[0][0]     
__________________________________________________________________________________________________
bn2c_branch2c (BatchNormalizati (None, 55, 55, 256)  1024        res1012c_branch2c[0][0]          
__________________________________________________________________________________________________
scale2c_branch2c (Scale)        (None, 55, 55, 256)  512         bn2c_branch2c[0][0]              
__________________________________________________________________________________________________
add_3 (Add)                     (None, 55, 55, 256)  0           scale2c_branch2c[0][0]           
                                                                 res2b_relu[0][0]                 
__________________________________________________________________________________________________
res2c_relu (Activation)         (None, 55, 55, 256)  0           add_3[0][0]                      
__________________________________________________________________________________________________
res1013a_branch2a (Conv2D)      (None, 28, 28, 128)  32768       res2c_relu[0][0]                 
__________________________________________________________________________________________________
bn3a_branch2a (BatchNormalizati (None, 28, 28, 128)  512         res1013a_branch2a[0][0]          
__________________________________________________________________________________________________
scale3a_branch2a (Scale)        (None, 28, 28, 128)  256         bn3a_branch2a[0][0]              
__________________________________________________________________________________________________
res1013a_branch2a_relu (Activat (None, 28, 28, 128)  0           scale3a_branch2a[0][0]           
__________________________________________________________________________________________________
res1013a_branch2b_zeropadding ( (None, 30, 30, 128)  0           res1013a_branch2a_relu[0][0]     
__________________________________________________________________________________________________
res1013a_branch2b (Conv2D)      (None, 28, 28, 128)  147456      res1013a_branch2b_zeropadding[0][
__________________________________________________________________________________________________
bn3a_branch2b (BatchNormalizati (None, 28, 28, 128)  512         res1013a_branch2b[0][0]          
__________________________________________________________________________________________________
scale3a_branch2b (Scale)        (None, 28, 28, 128)  256         bn3a_branch2b[0][0]              
__________________________________________________________________________________________________
res1013a_branch2b_relu (Activat (None, 28, 28, 128)  0           scale3a_branch2b[0][0]           
__________________________________________________________________________________________________
res1013a_branch2c (Conv2D)      (None, 28, 28, 512)  65536       res1013a_branch2b_relu[0][0]     
__________________________________________________________________________________________________
res1013a_branch1 (Conv2D)       (None, 28, 28, 512)  131072      res2c_relu[0][0]                 
__________________________________________________________________________________________________
bn3a_branch2c (BatchNormalizati (None, 28, 28, 512)  2048        res1013a_branch2c[0][0]          
__________________________________________________________________________________________________
bn3a_branch1 (BatchNormalizatio (None, 28, 28, 512)  2048        res1013a_branch1[0][0]           
__________________________________________________________________________________________________
scale3a_branch2c (Scale)        (None, 28, 28, 512)  1024        bn3a_branch2c[0][0]              
__________________________________________________________________________________________________
scale3a_branch1 (Scale)         (None, 28, 28, 512)  1024        bn3a_branch1[0][0]               
__________________________________________________________________________________________________
add_4 (Add)                     (None, 28, 28, 512)  0           scale3a_branch2c[0][0]           
                                                                 scale3a_branch1[0][0]            
__________________________________________________________________________________________________
res3a_relu (Activation)         (None, 28, 28, 512)  0           add_4[0][0]                      
__________________________________________________________________________________________________
res1013b1_branch2a (Conv2D)     (None, 28, 28, 128)  65536       res3a_relu[0][0]                 
__________________________________________________________________________________________________
bn3b1_branch2a (BatchNormalizat (None, 28, 28, 128)  512         res1013b1_branch2a[0][0]         
__________________________________________________________________________________________________
scale3b1_branch2a (Scale)       (None, 28, 28, 128)  256         bn3b1_branch2a[0][0]             
__________________________________________________________________________________________________
res1013b1_branch2a_relu (Activa (None, 28, 28, 128)  0           scale3b1_branch2a[0][0]          
__________________________________________________________________________________________________
res1013b1_branch2b_zeropadding  (None, 30, 30, 128)  0           res1013b1_branch2a_relu[0][0]    
__________________________________________________________________________________________________
res1013b1_branch2b (Conv2D)     (None, 28, 28, 128)  147456      res1013b1_branch2b_zeropadding[0]
__________________________________________________________________________________________________
bn3b1_branch2b (BatchNormalizat (None, 28, 28, 128)  512         res1013b1_branch2b[0][0]         
__________________________________________________________________________________________________
scale3b1_branch2b (Scale)       (None, 28, 28, 128)  256         bn3b1_branch2b[0][0]             
__________________________________________________________________________________________________
res1013b1_branch2b_relu (Activa (None, 28, 28, 128)  0           scale3b1_branch2b[0][0]          
__________________________________________________________________________________________________
res1013b1_branch2c (Conv2D)     (None, 28, 28, 512)  65536       res1013b1_branch2b_relu[0][0]    
__________________________________________________________________________________________________
bn3b1_branch2c (BatchNormalizat (None, 28, 28, 512)  2048        res1013b1_branch2c[0][0]         
__________________________________________________________________________________________________
scale3b1_branch2c (Scale)       (None, 28, 28, 512)  1024        bn3b1_branch2c[0][0]             
__________________________________________________________________________________________________
add_5 (Add)                     (None, 28, 28, 512)  0           scale3b1_branch2c[0][0]          
                                                                 res3a_relu[0][0]                 
__________________________________________________________________________________________________
res3b1_relu (Activation)        (None, 28, 28, 512)  0           add_5[0][0]                      
__________________________________________________________________________________________________
res1013b2_branch2a (Conv2D)     (None, 28, 28, 128)  65536       res3b1_relu[0][0]                
__________________________________________________________________________________________________
bn3b2_branch2a (BatchNormalizat (None, 28, 28, 128)  512         res1013b2_branch2a[0][0]         
__________________________________________________________________________________________________
scale3b2_branch2a (Scale)       (None, 28, 28, 128)  256         bn3b2_branch2a[0][0]             
__________________________________________________________________________________________________
res1013b2_branch2a_relu (Activa (None, 28, 28, 128)  0           scale3b2_branch2a[0][0]          
__________________________________________________________________________________________________
res1013b2_branch2b_zeropadding  (None, 30, 30, 128)  0           res1013b2_branch2a_relu[0][0]    
__________________________________________________________________________________________________
res1013b2_branch2b (Conv2D)     (None, 28, 28, 128)  147456      res1013b2_branch2b_zeropadding[0]
__________________________________________________________________________________________________
bn3b2_branch2b (BatchNormalizat (None, 28, 28, 128)  512         res1013b2_branch2b[0][0]         
__________________________________________________________________________________________________
scale3b2_branch2b (Scale)       (None, 28, 28, 128)  256         bn3b2_branch2b[0][0]             
__________________________________________________________________________________________________
res1013b2_branch2b_relu (Activa (None, 28, 28, 128)  0           scale3b2_branch2b[0][0]          
__________________________________________________________________________________________________
res1013b2_branch2c (Conv2D)     (None, 28, 28, 512)  65536       res1013b2_branch2b_relu[0][0]    
__________________________________________________________________________________________________
bn3b2_branch2c (BatchNormalizat (None, 28, 28, 512)  2048        res1013b2_branch2c[0][0]         
__________________________________________________________________________________________________
scale3b2_branch2c (Scale)       (None, 28, 28, 512)  1024        bn3b2_branch2c[0][0]             
__________________________________________________________________________________________________
add_6 (Add)                     (None, 28, 28, 512)  0           scale3b2_branch2c[0][0]          
                                                                 res3b1_relu[0][0]                
__________________________________________________________________________________________________
res3b2_relu (Activation)        (None, 28, 28, 512)  0           add_6[0][0]                      
__________________________________________________________________________________________________
res1013b3_branch2a (Conv2D)     (None, 28, 28, 128)  65536       res3b2_relu[0][0]                
__________________________________________________________________________________________________
bn3b3_branch2a (BatchNormalizat (None, 28, 28, 128)  512         res1013b3_branch2a[0][0]         
__________________________________________________________________________________________________
scale3b3_branch2a (Scale)       (None, 28, 28, 128)  256         bn3b3_branch2a[0][0]             
__________________________________________________________________________________________________
res1013b3_branch2a_relu (Activa (None, 28, 28, 128)  0           scale3b3_branch2a[0][0]          
__________________________________________________________________________________________________
res1013b3_branch2b_zeropadding  (None, 30, 30, 128)  0           res1013b3_branch2a_relu[0][0]    
__________________________________________________________________________________________________
res1013b3_branch2b (Conv2D)     (None, 28, 28, 128)  147456      res1013b3_branch2b_zeropadding[0]
__________________________________________________________________________________________________
bn3b3_branch2b (BatchNormalizat (None, 28, 28, 128)  512         res1013b3_branch2b[0][0]         
__________________________________________________________________________________________________
scale3b3_branch2b (Scale)       (None, 28, 28, 128)  256         bn3b3_branch2b[0][0]             
__________________________________________________________________________________________________
res1013b3_branch2b_relu (Activa (None, 28, 28, 128)  0           scale3b3_branch2b[0][0]          
__________________________________________________________________________________________________
res1013b3_branch2c (Conv2D)     (None, 28, 28, 512)  65536       res1013b3_branch2b_relu[0][0]    
__________________________________________________________________________________________________
bn3b3_branch2c (BatchNormalizat (None, 28, 28, 512)  2048        res1013b3_branch2c[0][0]         
__________________________________________________________________________________________________
scale3b3_branch2c (Scale)       (None, 28, 28, 512)  1024        bn3b3_branch2c[0][0]             
__________________________________________________________________________________________________
add_7 (Add)                     (None, 28, 28, 512)  0           scale3b3_branch2c[0][0]          
                                                                 res3b2_relu[0][0]                
__________________________________________________________________________________________________
res3b3_relu (Activation)        (None, 28, 28, 512)  0           add_7[0][0]                      
__________________________________________________________________________________________________
res1014a_branch2a (Conv2D)      (None, 14, 14, 256)  131072      res3b3_relu[0][0]                
__________________________________________________________________________________________________
bn4a_branch2a (BatchNormalizati (None, 14, 14, 256)  1024        res1014a_branch2a[0][0]          
__________________________________________________________________________________________________
scale4a_branch2a (Scale)        (None, 14, 14, 256)  512         bn4a_branch2a[0][0]              
__________________________________________________________________________________________________
res1014a_branch2a_relu (Activat (None, 14, 14, 256)  0           scale4a_branch2a[0][0]           
__________________________________________________________________________________________________
res1014a_branch2b_zeropadding ( (None, 16, 16, 256)  0           res1014a_branch2a_relu[0][0]     
__________________________________________________________________________________________________
res1014a_branch2b (Conv2D)      (None, 14, 14, 256)  589824      res1014a_branch2b_zeropadding[0][
__________________________________________________________________________________________________
bn4a_branch2b (BatchNormalizati (None, 14, 14, 256)  1024        res1014a_branch2b[0][0]          
__________________________________________________________________________________________________
scale4a_branch2b (Scale)        (None, 14, 14, 256)  512         bn4a_branch2b[0][0]              
__________________________________________________________________________________________________
res1014a_branch2b_relu (Activat (None, 14, 14, 256)  0           scale4a_branch2b[0][0]           
__________________________________________________________________________________________________
res1014a_branch2c (Conv2D)      (None, 14, 14, 1024) 262144      res1014a_branch2b_relu[0][0]     
__________________________________________________________________________________________________
res1014a_branch1 (Conv2D)       (None, 14, 14, 1024) 524288      res3b3_relu[0][0]                
__________________________________________________________________________________________________
bn4a_branch2c (BatchNormalizati (None, 14, 14, 1024) 4096        res1014a_branch2c[0][0]          
__________________________________________________________________________________________________
bn4a_branch1 (BatchNormalizatio (None, 14, 14, 1024) 4096        res1014a_branch1[0][0]           
__________________________________________________________________________________________________
scale4a_branch2c (Scale)        (None, 14, 14, 1024) 2048        bn4a_branch2c[0][0]              
__________________________________________________________________________________________________
scale4a_branch1 (Scale)         (None, 14, 14, 1024) 2048        bn4a_branch1[0][0]               
__________________________________________________________________________________________________
add_8 (Add)                     (None, 14, 14, 1024) 0           scale4a_branch2c[0][0]           
                                                                 scale4a_branch1[0][0]            
__________________________________________________________________________________________________
res4a_relu (Activation)         (None, 14, 14, 1024) 0           add_8[0][0]                      
__________________________________________________________________________________________________
res1014b1_branch2a (Conv2D)     (None, 14, 14, 256)  262144      res4a_relu[0][0]                 
__________________________________________________________________________________________________
bn4b1_branch2a (BatchNormalizat (None, 14, 14, 256)  1024        res1014b1_branch2a[0][0]         
__________________________________________________________________________________________________
scale4b1_branch2a (Scale)       (None, 14, 14, 256)  512         bn4b1_branch2a[0][0]             
__________________________________________________________________________________________________
res1014b1_branch2a_relu (Activa (None, 14, 14, 256)  0           scale4b1_branch2a[0][0]          
__________________________________________________________________________________________________
res1014b1_branch2b_zeropadding  (None, 16, 16, 256)  0           res1014b1_branch2a_relu[0][0]    
__________________________________________________________________________________________________
res1014b1_branch2b (Conv2D)     (None, 14, 14, 256)  589824      res1014b1_branch2b_zeropadding[0]
__________________________________________________________________________________________________
bn4b1_branch2b (BatchNormalizat (None, 14, 14, 256)  1024        res1014b1_branch2b[0][0]         
__________________________________________________________________________________________________
scale4b1_branch2b (Scale)       (None, 14, 14, 256)  512         bn4b1_branch2b[0][0]             
__________________________________________________________________________________________________
res1014b1_branch2b_relu (Activa (None, 14, 14, 256)  0           scale4b1_branch2b[0][0]          
__________________________________________________________________________________________________
res1014b1_branch2c (Conv2D)     (None, 14, 14, 1024) 262144      res1014b1_branch2b_relu[0][0]    
__________________________________________________________________________________________________
bn4b1_branch2c (BatchNormalizat (None, 14, 14, 1024) 4096        res1014b1_branch2c[0][0]         
__________________________________________________________________________________________________
scale4b1_branch2c (Scale)       (None, 14, 14, 1024) 2048        bn4b1_branch2c[0][0]             
__________________________________________________________________________________________________
add_9 (Add)                     (None, 14, 14, 1024) 0           scale4b1_branch2c[0][0]          
                                                                 res4a_relu[0][0]                 
__________________________________________________________________________________________________
res4b1_relu (Activation)        (None, 14, 14, 1024) 0           add_9[0][0]                      
__________________________________________________________________________________________________
res1014b2_branch2a (Conv2D)     (None, 14, 14, 256)  262144      res4b1_relu[0][0]                
__________________________________________________________________________________________________
bn4b2_branch2a (BatchNormalizat (None, 14, 14, 256)  1024        res1014b2_branch2a[0][0]         
__________________________________________________________________________________________________
scale4b2_branch2a (Scale)       (None, 14, 14, 256)  512         bn4b2_branch2a[0][0]             
__________________________________________________________________________________________________
res1014b2_branch2a_relu (Activa (None, 14, 14, 256)  0           scale4b2_branch2a[0][0]          
__________________________________________________________________________________________________
res1014b2_branch2b_zeropadding  (None, 16, 16, 256)  0           res1014b2_branch2a_relu[0][0]    
__________________________________________________________________________________________________
res1014b2_branch2b (Conv2D)     (None, 14, 14, 256)  589824      res1014b2_branch2b_zeropadding[0]
__________________________________________________________________________________________________
bn4b2_branch2b (BatchNormalizat (None, 14, 14, 256)  1024        res1014b2_branch2b[0][0]         
__________________________________________________________________________________________________
scale4b2_branch2b (Scale)       (None, 14, 14, 256)  512         bn4b2_branch2b[0][0]             
__________________________________________________________________________________________________
res1014b2_branch2b_relu (Activa (None, 14, 14, 256)  0           scale4b2_branch2b[0][0]          
__________________________________________________________________________________________________
res1014b2_branch2c (Conv2D)     (None, 14, 14, 1024) 262144      res1014b2_branch2b_relu[0][0]    
__________________________________________________________________________________________________
bn4b2_branch2c (BatchNormalizat (None, 14, 14, 1024) 4096        res1014b2_branch2c[0][0]         
__________________________________________________________________________________________________
scale4b2_branch2c (Scale)       (None, 14, 14, 1024) 2048        bn4b2_branch2c[0][0]             
__________________________________________________________________________________________________
add_10 (Add)                    (None, 14, 14, 1024) 0           scale4b2_branch2c[0][0]          
                                                                 res4b1_relu[0][0]                
__________________________________________________________________________________________________
res4b2_relu (Activation)        (None, 14, 14, 1024) 0           add_10[0][0]                     
__________________________________________________________________________________________________
res1014b3_branch2a (Conv2D)     (None, 14, 14, 256)  262144      res4b2_relu[0][0]                
__________________________________________________________________________________________________
bn4b3_branch2a (BatchNormalizat (None, 14, 14, 256)  1024        res1014b3_branch2a[0][0]         
__________________________________________________________________________________________________
scale4b3_branch2a (Scale)       (None, 14, 14, 256)  512         bn4b3_branch2a[0][0]             
__________________________________________________________________________________________________
res1014b3_branch2a_relu (Activa (None, 14, 14, 256)  0           scale4b3_branch2a[0][0]          
__________________________________________________________________________________________________
res1014b3_branch2b_zeropadding  (None, 16, 16, 256)  0           res1014b3_branch2a_relu[0][0]    
__________________________________________________________________________________________________
res1014b3_branch2b (Conv2D)     (None, 14, 14, 256)  589824      res1014b3_branch2b_zeropadding[0]
__________________________________________________________________________________________________
bn4b3_branch2b (BatchNormalizat (None, 14, 14, 256)  1024        res1014b3_branch2b[0][0]         
__________________________________________________________________________________________________
scale4b3_branch2b (Scale)       (None, 14, 14, 256)  512         bn4b3_branch2b[0][0]             
__________________________________________________________________________________________________
res1014b3_branch2b_relu (Activa (None, 14, 14, 256)  0           scale4b3_branch2b[0][0]          
__________________________________________________________________________________________________
res1014b3_branch2c (Conv2D)     (None, 14, 14, 1024) 262144      res1014b3_branch2b_relu[0][0]    
__________________________________________________________________________________________________
bn4b3_branch2c (BatchNormalizat (None, 14, 14, 1024) 4096        res1014b3_branch2c[0][0]         
__________________________________________________________________________________________________
scale4b3_branch2c (Scale)       (None, 14, 14, 1024) 2048        bn4b3_branch2c[0][0]             
__________________________________________________________________________________________________
add_11 (Add)                    (None, 14, 14, 1024) 0           scale4b3_branch2c[0][0]          
                                                                 res4b2_relu[0][0]                
__________________________________________________________________________________________________
res4b3_relu (Activation)        (None, 14, 14, 1024) 0           add_11[0][0]                     
__________________________________________________________________________________________________
res1014b4_branch2a (Conv2D)     (None, 14, 14, 256)  262144      res4b3_relu[0][0]                
__________________________________________________________________________________________________
bn4b4_branch2a (BatchNormalizat (None, 14, 14, 256)  1024        res1014b4_branch2a[0][0]         
__________________________________________________________________________________________________
scale4b4_branch2a (Scale)       (None, 14, 14, 256)  512         bn4b4_branch2a[0][0]             
__________________________________________________________________________________________________
res1014b4_branch2a_relu (Activa (None, 14, 14, 256)  0           scale4b4_branch2a[0][0]          
__________________________________________________________________________________________________
res1014b4_branch2b_zeropadding  (None, 16, 16, 256)  0           res1014b4_branch2a_relu[0][0]    
__________________________________________________________________________________________________
res1014b4_branch2b (Conv2D)     (None, 14, 14, 256)  589824      res1014b4_branch2b_zeropadding[0]
__________________________________________________________________________________________________
bn4b4_branch2b (BatchNormalizat (None, 14, 14, 256)  1024        res1014b4_branch2b[0][0]         
__________________________________________________________________________________________________
scale4b4_branch2b (Scale)       (None, 14, 14, 256)  512         bn4b4_branch2b[0][0]             
__________________________________________________________________________________________________
res1014b4_branch2b_relu (Activa (None, 14, 14, 256)  0           scale4b4_branch2b[0][0]          
__________________________________________________________________________________________________
res1014b4_branch2c (Conv2D)     (None, 14, 14, 1024) 262144      res1014b4_branch2b_relu[0][0]    
__________________________________________________________________________________________________
bn4b4_branch2c (BatchNormalizat (None, 14, 14, 1024) 4096        res1014b4_branch2c[0][0]         
__________________________________________________________________________________________________
scale4b4_branch2c (Scale)       (None, 14, 14, 1024) 2048        bn4b4_branch2c[0][0]             
__________________________________________________________________________________________________
add_12 (Add)                    (None, 14, 14, 1024) 0           scale4b4_branch2c[0][0]          
                                                                 res4b3_relu[0][0]                
__________________________________________________________________________________________________
res4b4_relu (Activation)        (None, 14, 14, 1024) 0           add_12[0][0]                     
__________________________________________________________________________________________________
res1014b5_branch2a (Conv2D)     (None, 14, 14, 256)  262144      res4b4_relu[0][0]                
__________________________________________________________________________________________________
bn4b5_branch2a (BatchNormalizat (None, 14, 14, 256)  1024        res1014b5_branch2a[0][0]         
__________________________________________________________________________________________________
scale4b5_branch2a (Scale)       (None, 14, 14, 256)  512         bn4b5_branch2a[0][0]             
__________________________________________________________________________________________________
res1014b5_branch2a_relu (Activa (None, 14, 14, 256)  0           scale4b5_branch2a[0][0]          
__________________________________________________________________________________________________
res1014b5_branch2b_zeropadding  (None, 16, 16, 256)  0           res1014b5_branch2a_relu[0][0]    
__________________________________________________________________________________________________
res1014b5_branch2b (Conv2D)     (None, 14, 14, 256)  589824      res1014b5_branch2b_zeropadding[0]
__________________________________________________________________________________________________
bn4b5_branch2b (BatchNormalizat (None, 14, 14, 256)  1024        res1014b5_branch2b[0][0]         
__________________________________________________________________________________________________
scale4b5_branch2b (Scale)       (None, 14, 14, 256)  512         bn4b5_branch2b[0][0]             
__________________________________________________________________________________________________
res1014b5_branch2b_relu (Activa (None, 14, 14, 256)  0           scale4b5_branch2b[0][0]          
__________________________________________________________________________________________________
res1014b5_branch2c (Conv2D)     (None, 14, 14, 1024) 262144      res1014b5_branch2b_relu[0][0]    
__________________________________________________________________________________________________
bn4b5_branch2c (BatchNormalizat (None, 14, 14, 1024) 4096        res1014b5_branch2c[0][0]         
__________________________________________________________________________________________________
scale4b5_branch2c (Scale)       (None, 14, 14, 1024) 2048        bn4b5_branch2c[0][0]             
__________________________________________________________________________________________________
add_13 (Add)                    (None, 14, 14, 1024) 0           scale4b5_branch2c[0][0]          
                                                                 res4b4_relu[0][0]                
__________________________________________________________________________________________________
res4b5_relu (Activation)        (None, 14, 14, 1024) 0           add_13[0][0]                     
__________________________________________________________________________________________________
res1014b6_branch2a (Conv2D)     (None, 14, 14, 256)  262144      res4b5_relu[0][0]                
__________________________________________________________________________________________________
bn4b6_branch2a (BatchNormalizat (None, 14, 14, 256)  1024        res1014b6_branch2a[0][0]         
__________________________________________________________________________________________________
scale4b6_branch2a (Scale)       (None, 14, 14, 256)  512         bn4b6_branch2a[0][0]             
__________________________________________________________________________________________________
res1014b6_branch2a_relu (Activa (None, 14, 14, 256)  0           scale4b6_branch2a[0][0]          
__________________________________________________________________________________________________
res1014b6_branch2b_zeropadding  (None, 16, 16, 256)  0           res1014b6_branch2a_relu[0][0]    
__________________________________________________________________________________________________
res1014b6_branch2b (Conv2D)     (None, 14, 14, 256)  589824      res1014b6_branch2b_zeropadding[0]
__________________________________________________________________________________________________
bn4b6_branch2b (BatchNormalizat (None, 14, 14, 256)  1024        res1014b6_branch2b[0][0]         
__________________________________________________________________________________________________
scale4b6_branch2b (Scale)       (None, 14, 14, 256)  512         bn4b6_branch2b[0][0]             
__________________________________________________________________________________________________
res1014b6_branch2b_relu (Activa (None, 14, 14, 256)  0           scale4b6_branch2b[0][0]          
__________________________________________________________________________________________________
res1014b6_branch2c (Conv2D)     (None, 14, 14, 1024) 262144      res1014b6_branch2b_relu[0][0]    
__________________________________________________________________________________________________
bn4b6_branch2c (BatchNormalizat (None, 14, 14, 1024) 4096        res1014b6_branch2c[0][0]         
__________________________________________________________________________________________________
scale4b6_branch2c (Scale)       (None, 14, 14, 1024) 2048        bn4b6_branch2c[0][0]             
__________________________________________________________________________________________________
add_14 (Add)                    (None, 14, 14, 1024) 0           scale4b6_branch2c[0][0]          
                                                                 res4b5_relu[0][0]                
__________________________________________________________________________________________________
res4b6_relu (Activation)        (None, 14, 14, 1024) 0           add_14[0][0]                     
__________________________________________________________________________________________________
res1014b7_branch2a (Conv2D)     (None, 14, 14, 256)  262144      res4b6_relu[0][0]                
__________________________________________________________________________________________________
bn4b7_branch2a (BatchNormalizat (None, 14, 14, 256)  1024        res1014b7_branch2a[0][0]         
__________________________________________________________________________________________________
scale4b7_branch2a (Scale)       (None, 14, 14, 256)  512         bn4b7_branch2a[0][0]             
__________________________________________________________________________________________________
res1014b7_branch2a_relu (Activa (None, 14, 14, 256)  0           scale4b7_branch2a[0][0]          
__________________________________________________________________________________________________
res1014b7_branch2b_zeropadding  (None, 16, 16, 256)  0           res1014b7_branch2a_relu[0][0]    
__________________________________________________________________________________________________
res1014b7_branch2b (Conv2D)     (None, 14, 14, 256)  589824      res1014b7_branch2b_zeropadding[0]
__________________________________________________________________________________________________
bn4b7_branch2b (BatchNormalizat (None, 14, 14, 256)  1024        res1014b7_branch2b[0][0]         
__________________________________________________________________________________________________
scale4b7_branch2b (Scale)       (None, 14, 14, 256)  512         bn4b7_branch2b[0][0]             
__________________________________________________________________________________________________
res1014b7_branch2b_relu (Activa (None, 14, 14, 256)  0           scale4b7_branch2b[0][0]          
__________________________________________________________________________________________________
res1014b7_branch2c (Conv2D)     (None, 14, 14, 1024) 262144      res1014b7_branch2b_relu[0][0]    
__________________________________________________________________________________________________
bn4b7_branch2c (BatchNormalizat (None, 14, 14, 1024) 4096        res1014b7_branch2c[0][0]         
__________________________________________________________________________________________________
scale4b7_branch2c (Scale)       (None, 14, 14, 1024) 2048        bn4b7_branch2c[0][0]             
__________________________________________________________________________________________________
add_15 (Add)                    (None, 14, 14, 1024) 0           scale4b7_branch2c[0][0]          
                                                                 res4b6_relu[0][0]                
__________________________________________________________________________________________________
res4b7_relu (Activation)        (None, 14, 14, 1024) 0           add_15[0][0]                     
__________________________________________________________________________________________________
res1014b8_branch2a (Conv2D)     (None, 14, 14, 256)  262144      res4b7_relu[0][0]                
__________________________________________________________________________________________________
bn4b8_branch2a (BatchNormalizat (None, 14, 14, 256)  1024        res1014b8_branch2a[0][0]         
__________________________________________________________________________________________________
scale4b8_branch2a (Scale)       (None, 14, 14, 256)  512         bn4b8_branch2a[0][0]             
__________________________________________________________________________________________________
res1014b8_branch2a_relu (Activa (None, 14, 14, 256)  0           scale4b8_branch2a[0][0]          
__________________________________________________________________________________________________
res1014b8_branch2b_zeropadding  (None, 16, 16, 256)  0           res1014b8_branch2a_relu[0][0]    
__________________________________________________________________________________________________
res1014b8_branch2b (Conv2D)     (None, 14, 14, 256)  589824      res1014b8_branch2b_zeropadding[0]
__________________________________________________________________________________________________
bn4b8_branch2b (BatchNormalizat (None, 14, 14, 256)  1024        res1014b8_branch2b[0][0]         
__________________________________________________________________________________________________
scale4b8_branch2b (Scale)       (None, 14, 14, 256)  512         bn4b8_branch2b[0][0]             
__________________________________________________________________________________________________
res1014b8_branch2b_relu (Activa (None, 14, 14, 256)  0           scale4b8_branch2b[0][0]          
__________________________________________________________________________________________________
res1014b8_branch2c (Conv2D)     (None, 14, 14, 1024) 262144      res1014b8_branch2b_relu[0][0]    
__________________________________________________________________________________________________
bn4b8_branch2c (BatchNormalizat (None, 14, 14, 1024) 4096        res1014b8_branch2c[0][0]         
__________________________________________________________________________________________________
scale4b8_branch2c (Scale)       (None, 14, 14, 1024) 2048        bn4b8_branch2c[0][0]             
__________________________________________________________________________________________________
add_16 (Add)                    (None, 14, 14, 1024) 0           scale4b8_branch2c[0][0]          
                                                                 res4b7_relu[0][0]                
__________________________________________________________________________________________________
res4b8_relu (Activation)        (None, 14, 14, 1024) 0           add_16[0][0]                     
__________________________________________________________________________________________________
res1014b9_branch2a (Conv2D)     (None, 14, 14, 256)  262144      res4b8_relu[0][0]                
__________________________________________________________________________________________________
bn4b9_branch2a (BatchNormalizat (None, 14, 14, 256)  1024        res1014b9_branch2a[0][0]         
__________________________________________________________________________________________________
scale4b9_branch2a (Scale)       (None, 14, 14, 256)  512         bn4b9_branch2a[0][0]             
__________________________________________________________________________________________________
res1014b9_branch2a_relu (Activa (None, 14, 14, 256)  0           scale4b9_branch2a[0][0]          
__________________________________________________________________________________________________
res1014b9_branch2b_zeropadding  (None, 16, 16, 256)  0           res1014b9_branch2a_relu[0][0]    
__________________________________________________________________________________________________
res1014b9_branch2b (Conv2D)     (None, 14, 14, 256)  589824      res1014b9_branch2b_zeropadding[0]
__________________________________________________________________________________________________
bn4b9_branch2b (BatchNormalizat (None, 14, 14, 256)  1024        res1014b9_branch2b[0][0]         
__________________________________________________________________________________________________
scale4b9_branch2b (Scale)       (None, 14, 14, 256)  512         bn4b9_branch2b[0][0]             
__________________________________________________________________________________________________
res1014b9_branch2b_relu (Activa (None, 14, 14, 256)  0           scale4b9_branch2b[0][0]          
__________________________________________________________________________________________________
res1014b9_branch2c (Conv2D)     (None, 14, 14, 1024) 262144      res1014b9_branch2b_relu[0][0]    
__________________________________________________________________________________________________
bn4b9_branch2c (BatchNormalizat (None, 14, 14, 1024) 4096        res1014b9_branch2c[0][0]         
__________________________________________________________________________________________________
scale4b9_branch2c (Scale)       (None, 14, 14, 1024) 2048        bn4b9_branch2c[0][0]             
__________________________________________________________________________________________________
add_17 (Add)                    (None, 14, 14, 1024) 0           scale4b9_branch2c[0][0]          
                                                                 res4b8_relu[0][0]                
__________________________________________________________________________________________________
res4b9_relu (Activation)        (None, 14, 14, 1024) 0           add_17[0][0]                     
__________________________________________________________________________________________________
res1014b10_branch2a (Conv2D)    (None, 14, 14, 256)  262144      res4b9_relu[0][0]                
__________________________________________________________________________________________________
bn4b10_branch2a (BatchNormaliza (None, 14, 14, 256)  1024        res1014b10_branch2a[0][0]        
__________________________________________________________________________________________________
scale4b10_branch2a (Scale)      (None, 14, 14, 256)  512         bn4b10_branch2a[0][0]            
__________________________________________________________________________________________________
res1014b10_branch2a_relu (Activ (None, 14, 14, 256)  0           scale4b10_branch2a[0][0]         
__________________________________________________________________________________________________
res1014b10_branch2b_zeropadding (None, 16, 16, 256)  0           res1014b10_branch2a_relu[0][0]   
__________________________________________________________________________________________________
res1014b10_branch2b (Conv2D)    (None, 14, 14, 256)  589824      res1014b10_branch2b_zeropadding[0
__________________________________________________________________________________________________
bn4b10_branch2b (BatchNormaliza (None, 14, 14, 256)  1024        res1014b10_branch2b[0][0]        
__________________________________________________________________________________________________
scale4b10_branch2b (Scale)      (None, 14, 14, 256)  512         bn4b10_branch2b[0][0]            
__________________________________________________________________________________________________
res1014b10_branch2b_relu (Activ (None, 14, 14, 256)  0           scale4b10_branch2b[0][0]         
__________________________________________________________________________________________________
res1014b10_branch2c (Conv2D)    (None, 14, 14, 1024) 262144      res1014b10_branch2b_relu[0][0]   
__________________________________________________________________________________________________
bn4b10_branch2c (BatchNormaliza (None, 14, 14, 1024) 4096        res1014b10_branch2c[0][0]        
__________________________________________________________________________________________________
scale4b10_branch2c (Scale)      (None, 14, 14, 1024) 2048        bn4b10_branch2c[0][0]            
__________________________________________________________________________________________________
add_18 (Add)                    (None, 14, 14, 1024) 0           scale4b10_branch2c[0][0]         
                                                                 res4b9_relu[0][0]                
__________________________________________________________________________________________________
res4b10_relu (Activation)       (None, 14, 14, 1024) 0           add_18[0][0]                     
__________________________________________________________________________________________________
res1014b11_branch2a (Conv2D)    (None, 14, 14, 256)  262144      res4b10_relu[0][0]               
__________________________________________________________________________________________________
bn4b11_branch2a (BatchNormaliza (None, 14, 14, 256)  1024        res1014b11_branch2a[0][0]        
__________________________________________________________________________________________________
scale4b11_branch2a (Scale)      (None, 14, 14, 256)  512         bn4b11_branch2a[0][0]            
__________________________________________________________________________________________________
res1014b11_branch2a_relu (Activ (None, 14, 14, 256)  0           scale4b11_branch2a[0][0]         
__________________________________________________________________________________________________
res1014b11_branch2b_zeropadding (None, 16, 16, 256)  0           res1014b11_branch2a_relu[0][0]   
__________________________________________________________________________________________________
res1014b11_branch2b (Conv2D)    (None, 14, 14, 256)  589824      res1014b11_branch2b_zeropadding[0
__________________________________________________________________________________________________
bn4b11_branch2b (BatchNormaliza (None, 14, 14, 256)  1024        res1014b11_branch2b[0][0]        
__________________________________________________________________________________________________
scale4b11_branch2b (Scale)      (None, 14, 14, 256)  512         bn4b11_branch2b[0][0]            
__________________________________________________________________________________________________
res1014b11_branch2b_relu (Activ (None, 14, 14, 256)  0           scale4b11_branch2b[0][0]         
__________________________________________________________________________________________________
res1014b11_branch2c (Conv2D)    (None, 14, 14, 1024) 262144      res1014b11_branch2b_relu[0][0]   
__________________________________________________________________________________________________
bn4b11_branch2c (BatchNormaliza (None, 14, 14, 1024) 4096        res1014b11_branch2c[0][0]        
__________________________________________________________________________________________________
scale4b11_branch2c (Scale)      (None, 14, 14, 1024) 2048        bn4b11_branch2c[0][0]            
__________________________________________________________________________________________________
add_19 (Add)                    (None, 14, 14, 1024) 0           scale4b11_branch2c[0][0]         
                                                                 res4b10_relu[0][0]               
__________________________________________________________________________________________________
res4b11_relu (Activation)       (None, 14, 14, 1024) 0           add_19[0][0]                     
__________________________________________________________________________________________________
res1014b12_branch2a (Conv2D)    (None, 14, 14, 256)  262144      res4b11_relu[0][0]               
__________________________________________________________________________________________________
bn4b12_branch2a (BatchNormaliza (None, 14, 14, 256)  1024        res1014b12_branch2a[0][0]        
__________________________________________________________________________________________________
scale4b12_branch2a (Scale)      (None, 14, 14, 256)  512         bn4b12_branch2a[0][0]            
__________________________________________________________________________________________________
res1014b12_branch2a_relu (Activ (None, 14, 14, 256)  0           scale4b12_branch2a[0][0]         
__________________________________________________________________________________________________
res1014b12_branch2b_zeropadding (None, 16, 16, 256)  0           res1014b12_branch2a_relu[0][0]   
__________________________________________________________________________________________________
res1014b12_branch2b (Conv2D)    (None, 14, 14, 256)  589824      res1014b12_branch2b_zeropadding[0
__________________________________________________________________________________________________
bn4b12_branch2b (BatchNormaliza (None, 14, 14, 256)  1024        res1014b12_branch2b[0][0]        
__________________________________________________________________________________________________
scale4b12_branch2b (Scale)      (None, 14, 14, 256)  512         bn4b12_branch2b[0][0]            
__________________________________________________________________________________________________
res1014b12_branch2b_relu (Activ (None, 14, 14, 256)  0           scale4b12_branch2b[0][0]         
__________________________________________________________________________________________________
res1014b12_branch2c (Conv2D)    (None, 14, 14, 1024) 262144      res1014b12_branch2b_relu[0][0]   
__________________________________________________________________________________________________
bn4b12_branch2c (BatchNormaliza (None, 14, 14, 1024) 4096        res1014b12_branch2c[0][0]        
__________________________________________________________________________________________________
scale4b12_branch2c (Scale)      (None, 14, 14, 1024) 2048        bn4b12_branch2c[0][0]            
__________________________________________________________________________________________________
add_20 (Add)                    (None, 14, 14, 1024) 0           scale4b12_branch2c[0][0]         
                                                                 res4b11_relu[0][0]               
__________________________________________________________________________________________________
res4b12_relu (Activation)       (None, 14, 14, 1024) 0           add_20[0][0]                     
__________________________________________________________________________________________________
res1014b13_branch2a (Conv2D)    (None, 14, 14, 256)  262144      res4b12_relu[0][0]               
__________________________________________________________________________________________________
bn4b13_branch2a (BatchNormaliza (None, 14, 14, 256)  1024        res1014b13_branch2a[0][0]        
__________________________________________________________________________________________________
scale4b13_branch2a (Scale)      (None, 14, 14, 256)  512         bn4b13_branch2a[0][0]            
__________________________________________________________________________________________________
res1014b13_branch2a_relu (Activ (None, 14, 14, 256)  0           scale4b13_branch2a[0][0]         
__________________________________________________________________________________________________
res1014b13_branch2b_zeropadding (None, 16, 16, 256)  0           res1014b13_branch2a_relu[0][0]   
__________________________________________________________________________________________________
res1014b13_branch2b (Conv2D)    (None, 14, 14, 256)  589824      res1014b13_branch2b_zeropadding[0
__________________________________________________________________________________________________
bn4b13_branch2b (BatchNormaliza (None, 14, 14, 256)  1024        res1014b13_branch2b[0][0]        
__________________________________________________________________________________________________
scale4b13_branch2b (Scale)      (None, 14, 14, 256)  512         bn4b13_branch2b[0][0]            
__________________________________________________________________________________________________
res1014b13_branch2b_relu (Activ (None, 14, 14, 256)  0           scale4b13_branch2b[0][0]         
__________________________________________________________________________________________________
res1014b13_branch2c (Conv2D)    (None, 14, 14, 1024) 262144      res1014b13_branch2b_relu[0][0]   
__________________________________________________________________________________________________
bn4b13_branch2c (BatchNormaliza (None, 14, 14, 1024) 4096        res1014b13_branch2c[0][0]        
__________________________________________________________________________________________________
scale4b13_branch2c (Scale)      (None, 14, 14, 1024) 2048        bn4b13_branch2c[0][0]            
__________________________________________________________________________________________________
add_21 (Add)                    (None, 14, 14, 1024) 0           scale4b13_branch2c[0][0]         
                                                                 res4b12_relu[0][0]               
__________________________________________________________________________________________________
res4b13_relu (Activation)       (None, 14, 14, 1024) 0           add_21[0][0]                     
__________________________________________________________________________________________________
res1014b14_branch2a (Conv2D)    (None, 14, 14, 256)  262144      res4b13_relu[0][0]               
__________________________________________________________________________________________________
bn4b14_branch2a (BatchNormaliza (None, 14, 14, 256)  1024        res1014b14_branch2a[0][0]        
__________________________________________________________________________________________________
scale4b14_branch2a (Scale)      (None, 14, 14, 256)  512         bn4b14_branch2a[0][0]            
__________________________________________________________________________________________________
res1014b14_branch2a_relu (Activ (None, 14, 14, 256)  0           scale4b14_branch2a[0][0]         
__________________________________________________________________________________________________
res1014b14_branch2b_zeropadding (None, 16, 16, 256)  0           res1014b14_branch2a_relu[0][0]   
__________________________________________________________________________________________________
res1014b14_branch2b (Conv2D)    (None, 14, 14, 256)  589824      res1014b14_branch2b_zeropadding[0
__________________________________________________________________________________________________
bn4b14_branch2b (BatchNormaliza (None, 14, 14, 256)  1024        res1014b14_branch2b[0][0]        
__________________________________________________________________________________________________
scale4b14_branch2b (Scale)      (None, 14, 14, 256)  512         bn4b14_branch2b[0][0]            
__________________________________________________________________________________________________
res1014b14_branch2b_relu (Activ (None, 14, 14, 256)  0           scale4b14_branch2b[0][0]         
__________________________________________________________________________________________________
res1014b14_branch2c (Conv2D)    (None, 14, 14, 1024) 262144      res1014b14_branch2b_relu[0][0]   
__________________________________________________________________________________________________
bn4b14_branch2c (BatchNormaliza (None, 14, 14, 1024) 4096        res1014b14_branch2c[0][0]        
__________________________________________________________________________________________________
scale4b14_branch2c (Scale)      (None, 14, 14, 1024) 2048        bn4b14_branch2c[0][0]            
__________________________________________________________________________________________________
add_22 (Add)                    (None, 14, 14, 1024) 0           scale4b14_branch2c[0][0]         
                                                                 res4b13_relu[0][0]               
__________________________________________________________________________________________________
res4b14_relu (Activation)       (None, 14, 14, 1024) 0           add_22[0][0]                     
__________________________________________________________________________________________________
res1014b15_branch2a (Conv2D)    (None, 14, 14, 256)  262144      res4b14_relu[0][0]               
__________________________________________________________________________________________________
bn4b15_branch2a (BatchNormaliza (None, 14, 14, 256)  1024        res1014b15_branch2a[0][0]        
__________________________________________________________________________________________________
scale4b15_branch2a (Scale)      (None, 14, 14, 256)  512         bn4b15_branch2a[0][0]            
__________________________________________________________________________________________________
res1014b15_branch2a_relu (Activ (None, 14, 14, 256)  0           scale4b15_branch2a[0][0]         
__________________________________________________________________________________________________
res1014b15_branch2b_zeropadding (None, 16, 16, 256)  0           res1014b15_branch2a_relu[0][0]   
__________________________________________________________________________________________________
res1014b15_branch2b (Conv2D)    (None, 14, 14, 256)  589824      res1014b15_branch2b_zeropadding[0
__________________________________________________________________________________________________
bn4b15_branch2b (BatchNormaliza (None, 14, 14, 256)  1024        res1014b15_branch2b[0][0]        
__________________________________________________________________________________________________
scale4b15_branch2b (Scale)      (None, 14, 14, 256)  512         bn4b15_branch2b[0][0]            
__________________________________________________________________________________________________
res1014b15_branch2b_relu (Activ (None, 14, 14, 256)  0           scale4b15_branch2b[0][0]         
__________________________________________________________________________________________________
res1014b15_branch2c (Conv2D)    (None, 14, 14, 1024) 262144      res1014b15_branch2b_relu[0][0]   
__________________________________________________________________________________________________
bn4b15_branch2c (BatchNormaliza (None, 14, 14, 1024) 4096        res1014b15_branch2c[0][0]        
__________________________________________________________________________________________________
scale4b15_branch2c (Scale)      (None, 14, 14, 1024) 2048        bn4b15_branch2c[0][0]            
__________________________________________________________________________________________________
add_23 (Add)                    (None, 14, 14, 1024) 0           scale4b15_branch2c[0][0]         
                                                                 res4b14_relu[0][0]               
__________________________________________________________________________________________________
res4b15_relu (Activation)       (None, 14, 14, 1024) 0           add_23[0][0]                     
__________________________________________________________________________________________________
res1014b16_branch2a (Conv2D)    (None, 14, 14, 256)  262144      res4b15_relu[0][0]               
__________________________________________________________________________________________________
bn4b16_branch2a (BatchNormaliza (None, 14, 14, 256)  1024        res1014b16_branch2a[0][0]        
__________________________________________________________________________________________________
scale4b16_branch2a (Scale)      (None, 14, 14, 256)  512         bn4b16_branch2a[0][0]            
__________________________________________________________________________________________________
res1014b16_branch2a_relu (Activ (None, 14, 14, 256)  0           scale4b16_branch2a[0][0]         
__________________________________________________________________________________________________
res1014b16_branch2b_zeropadding (None, 16, 16, 256)  0           res1014b16_branch2a_relu[0][0]   
__________________________________________________________________________________________________
res1014b16_branch2b (Conv2D)    (None, 14, 14, 256)  589824      res1014b16_branch2b_zeropadding[0
__________________________________________________________________________________________________
bn4b16_branch2b (BatchNormaliza (None, 14, 14, 256)  1024        res1014b16_branch2b[0][0]        
__________________________________________________________________________________________________
scale4b16_branch2b (Scale)      (None, 14, 14, 256)  512         bn4b16_branch2b[0][0]            
__________________________________________________________________________________________________
res1014b16_branch2b_relu (Activ (None, 14, 14, 256)  0           scale4b16_branch2b[0][0]         
__________________________________________________________________________________________________
res1014b16_branch2c (Conv2D)    (None, 14, 14, 1024) 262144      res1014b16_branch2b_relu[0][0]   
__________________________________________________________________________________________________
bn4b16_branch2c (BatchNormaliza (None, 14, 14, 1024) 4096        res1014b16_branch2c[0][0]        
__________________________________________________________________________________________________
scale4b16_branch2c (Scale)      (None, 14, 14, 1024) 2048        bn4b16_branch2c[0][0]            
__________________________________________________________________________________________________
add_24 (Add)                    (None, 14, 14, 1024) 0           scale4b16_branch2c[0][0]         
                                                                 res4b15_relu[0][0]               
__________________________________________________________________________________________________
res4b16_relu (Activation)       (None, 14, 14, 1024) 0           add_24[0][0]                     
__________________________________________________________________________________________________
res1014b17_branch2a (Conv2D)    (None, 14, 14, 256)  262144      res4b16_relu[0][0]               
__________________________________________________________________________________________________
bn4b17_branch2a (BatchNormaliza (None, 14, 14, 256)  1024        res1014b17_branch2a[0][0]        
__________________________________________________________________________________________________
scale4b17_branch2a (Scale)      (None, 14, 14, 256)  512         bn4b17_branch2a[0][0]            
__________________________________________________________________________________________________
res1014b17_branch2a_relu (Activ (None, 14, 14, 256)  0           scale4b17_branch2a[0][0]         
__________________________________________________________________________________________________
res1014b17_branch2b_zeropadding (None, 16, 16, 256)  0           res1014b17_branch2a_relu[0][0]   
__________________________________________________________________________________________________
res1014b17_branch2b (Conv2D)    (None, 14, 14, 256)  589824      res1014b17_branch2b_zeropadding[0
__________________________________________________________________________________________________
bn4b17_branch2b (BatchNormaliza (None, 14, 14, 256)  1024        res1014b17_branch2b[0][0]        
__________________________________________________________________________________________________
scale4b17_branch2b (Scale)      (None, 14, 14, 256)  512         bn4b17_branch2b[0][0]            
__________________________________________________________________________________________________
res1014b17_branch2b_relu (Activ (None, 14, 14, 256)  0           scale4b17_branch2b[0][0]         
__________________________________________________________________________________________________
res1014b17_branch2c (Conv2D)    (None, 14, 14, 1024) 262144      res1014b17_branch2b_relu[0][0]   
__________________________________________________________________________________________________
bn4b17_branch2c (BatchNormaliza (None, 14, 14, 1024) 4096        res1014b17_branch2c[0][0]        
__________________________________________________________________________________________________
scale4b17_branch2c (Scale)      (None, 14, 14, 1024) 2048        bn4b17_branch2c[0][0]            
__________________________________________________________________________________________________
add_25 (Add)                    (None, 14, 14, 1024) 0           scale4b17_branch2c[0][0]         
                                                                 res4b16_relu[0][0]               
__________________________________________________________________________________________________
res4b17_relu (Activation)       (None, 14, 14, 1024) 0           add_25[0][0]                     
__________________________________________________________________________________________________
res1014b18_branch2a (Conv2D)    (None, 14, 14, 256)  262144      res4b17_relu[0][0]               
__________________________________________________________________________________________________
bn4b18_branch2a (BatchNormaliza (None, 14, 14, 256)  1024        res1014b18_branch2a[0][0]        
__________________________________________________________________________________________________
scale4b18_branch2a (Scale)      (None, 14, 14, 256)  512         bn4b18_branch2a[0][0]            
__________________________________________________________________________________________________
res1014b18_branch2a_relu (Activ (None, 14, 14, 256)  0           scale4b18_branch2a[0][0]         
__________________________________________________________________________________________________
res1014b18_branch2b_zeropadding (None, 16, 16, 256)  0           res1014b18_branch2a_relu[0][0]   
__________________________________________________________________________________________________
res1014b18_branch2b (Conv2D)    (None, 14, 14, 256)  589824      res1014b18_branch2b_zeropadding[0
__________________________________________________________________________________________________
bn4b18_branch2b (BatchNormaliza (None, 14, 14, 256)  1024        res1014b18_branch2b[0][0]        
__________________________________________________________________________________________________
scale4b18_branch2b (Scale)      (None, 14, 14, 256)  512         bn4b18_branch2b[0][0]            
__________________________________________________________________________________________________
res1014b18_branch2b_relu (Activ (None, 14, 14, 256)  0           scale4b18_branch2b[0][0]         
__________________________________________________________________________________________________
res1014b18_branch2c (Conv2D)    (None, 14, 14, 1024) 262144      res1014b18_branch2b_relu[0][0]   
__________________________________________________________________________________________________
bn4b18_branch2c (BatchNormaliza (None, 14, 14, 1024) 4096        res1014b18_branch2c[0][0]        
__________________________________________________________________________________________________
scale4b18_branch2c (Scale)      (None, 14, 14, 1024) 2048        bn4b18_branch2c[0][0]            
__________________________________________________________________________________________________
add_26 (Add)                    (None, 14, 14, 1024) 0           scale4b18_branch2c[0][0]         
                                                                 res4b17_relu[0][0]               
__________________________________________________________________________________________________
res4b18_relu (Activation)       (None, 14, 14, 1024) 0           add_26[0][0]                     
__________________________________________________________________________________________________
res1014b19_branch2a (Conv2D)    (None, 14, 14, 256)  262144      res4b18_relu[0][0]               
__________________________________________________________________________________________________
bn4b19_branch2a (BatchNormaliza (None, 14, 14, 256)  1024        res1014b19_branch2a[0][0]        
__________________________________________________________________________________________________
scale4b19_branch2a (Scale)      (None, 14, 14, 256)  512         bn4b19_branch2a[0][0]            
__________________________________________________________________________________________________
res1014b19_branch2a_relu (Activ (None, 14, 14, 256)  0           scale4b19_branch2a[0][0]         
__________________________________________________________________________________________________
res1014b19_branch2b_zeropadding (None, 16, 16, 256)  0           res1014b19_branch2a_relu[0][0]   
__________________________________________________________________________________________________
res1014b19_branch2b (Conv2D)    (None, 14, 14, 256)  589824      res1014b19_branch2b_zeropadding[0
__________________________________________________________________________________________________
bn4b19_branch2b (BatchNormaliza (None, 14, 14, 256)  1024        res1014b19_branch2b[0][0]        
__________________________________________________________________________________________________
scale4b19_branch2b (Scale)      (None, 14, 14, 256)  512         bn4b19_branch2b[0][0]            
__________________________________________________________________________________________________
res1014b19_branch2b_relu (Activ (None, 14, 14, 256)  0           scale4b19_branch2b[0][0]         
__________________________________________________________________________________________________
res1014b19_branch2c (Conv2D)    (None, 14, 14, 1024) 262144      res1014b19_branch2b_relu[0][0]   
__________________________________________________________________________________________________
bn4b19_branch2c (BatchNormaliza (None, 14, 14, 1024) 4096        res1014b19_branch2c[0][0]        
__________________________________________________________________________________________________
scale4b19_branch2c (Scale)      (None, 14, 14, 1024) 2048        bn4b19_branch2c[0][0]            
__________________________________________________________________________________________________
add_27 (Add)                    (None, 14, 14, 1024) 0           scale4b19_branch2c[0][0]         
                                                                 res4b18_relu[0][0]               
__________________________________________________________________________________________________
res4b19_relu (Activation)       (None, 14, 14, 1024) 0           add_27[0][0]                     
__________________________________________________________________________________________________
res1014b20_branch2a (Conv2D)    (None, 14, 14, 256)  262144      res4b19_relu[0][0]               
__________________________________________________________________________________________________
bn4b20_branch2a (BatchNormaliza (None, 14, 14, 256)  1024        res1014b20_branch2a[0][0]        
__________________________________________________________________________________________________
scale4b20_branch2a (Scale)      (None, 14, 14, 256)  512         bn4b20_branch2a[0][0]            
__________________________________________________________________________________________________
res1014b20_branch2a_relu (Activ (None, 14, 14, 256)  0           scale4b20_branch2a[0][0]         
__________________________________________________________________________________________________
res1014b20_branch2b_zeropadding (None, 16, 16, 256)  0           res1014b20_branch2a_relu[0][0]   
__________________________________________________________________________________________________
res1014b20_branch2b (Conv2D)    (None, 14, 14, 256)  589824      res1014b20_branch2b_zeropadding[0
__________________________________________________________________________________________________
bn4b20_branch2b (BatchNormaliza (None, 14, 14, 256)  1024        res1014b20_branch2b[0][0]        
__________________________________________________________________________________________________
scale4b20_branch2b (Scale)      (None, 14, 14, 256)  512         bn4b20_branch2b[0][0]            
__________________________________________________________________________________________________
res1014b20_branch2b_relu (Activ (None, 14, 14, 256)  0           scale4b20_branch2b[0][0]         
__________________________________________________________________________________________________
res1014b20_branch2c (Conv2D)    (None, 14, 14, 1024) 262144      res1014b20_branch2b_relu[0][0]   
__________________________________________________________________________________________________
bn4b20_branch2c (BatchNormaliza (None, 14, 14, 1024) 4096        res1014b20_branch2c[0][0]        
__________________________________________________________________________________________________
scale4b20_branch2c (Scale)      (None, 14, 14, 1024) 2048        bn4b20_branch2c[0][0]            
__________________________________________________________________________________________________
add_28 (Add)                    (None, 14, 14, 1024) 0           scale4b20_branch2c[0][0]         
                                                                 res4b19_relu[0][0]               
__________________________________________________________________________________________________
res4b20_relu (Activation)       (None, 14, 14, 1024) 0           add_28[0][0]                     
__________________________________________________________________________________________________
res1014b21_branch2a (Conv2D)    (None, 14, 14, 256)  262144      res4b20_relu[0][0]               
__________________________________________________________________________________________________
bn4b21_branch2a (BatchNormaliza (None, 14, 14, 256)  1024        res1014b21_branch2a[0][0]        
__________________________________________________________________________________________________
scale4b21_branch2a (Scale)      (None, 14, 14, 256)  512         bn4b21_branch2a[0][0]            
__________________________________________________________________________________________________
res1014b21_branch2a_relu (Activ (None, 14, 14, 256)  0           scale4b21_branch2a[0][0]         
__________________________________________________________________________________________________
res1014b21_branch2b_zeropadding (None, 16, 16, 256)  0           res1014b21_branch2a_relu[0][0]   
__________________________________________________________________________________________________
res1014b21_branch2b (Conv2D)    (None, 14, 14, 256)  589824      res1014b21_branch2b_zeropadding[0
__________________________________________________________________________________________________
bn4b21_branch2b (BatchNormaliza (None, 14, 14, 256)  1024        res1014b21_branch2b[0][0]        
__________________________________________________________________________________________________
scale4b21_branch2b (Scale)      (None, 14, 14, 256)  512         bn4b21_branch2b[0][0]            
__________________________________________________________________________________________________
res1014b21_branch2b_relu (Activ (None, 14, 14, 256)  0           scale4b21_branch2b[0][0]         
__________________________________________________________________________________________________
res1014b21_branch2c (Conv2D)    (None, 14, 14, 1024) 262144      res1014b21_branch2b_relu[0][0]   
__________________________________________________________________________________________________
bn4b21_branch2c (BatchNormaliza (None, 14, 14, 1024) 4096        res1014b21_branch2c[0][0]        
__________________________________________________________________________________________________
scale4b21_branch2c (Scale)      (None, 14, 14, 1024) 2048        bn4b21_branch2c[0][0]            
__________________________________________________________________________________________________
add_29 (Add)                    (None, 14, 14, 1024) 0           scale4b21_branch2c[0][0]         
                                                                 res4b20_relu[0][0]               
__________________________________________________________________________________________________
res4b21_relu (Activation)       (None, 14, 14, 1024) 0           add_29[0][0]                     
__________________________________________________________________________________________________
res1014b22_branch2a (Conv2D)    (None, 14, 14, 256)  262144      res4b21_relu[0][0]               
__________________________________________________________________________________________________
bn4b22_branch2a (BatchNormaliza (None, 14, 14, 256)  1024        res1014b22_branch2a[0][0]        
__________________________________________________________________________________________________
scale4b22_branch2a (Scale)      (None, 14, 14, 256)  512         bn4b22_branch2a[0][0]            
__________________________________________________________________________________________________
res1014b22_branch2a_relu (Activ (None, 14, 14, 256)  0           scale4b22_branch2a[0][0]         
__________________________________________________________________________________________________
res1014b22_branch2b_zeropadding (None, 16, 16, 256)  0           res1014b22_branch2a_relu[0][0]   
__________________________________________________________________________________________________
res1014b22_branch2b (Conv2D)    (None, 14, 14, 256)  589824      res1014b22_branch2b_zeropadding[0
__________________________________________________________________________________________________
bn4b22_branch2b (BatchNormaliza (None, 14, 14, 256)  1024        res1014b22_branch2b[0][0]        
__________________________________________________________________________________________________
scale4b22_branch2b (Scale)      (None, 14, 14, 256)  512         bn4b22_branch2b[0][0]            
__________________________________________________________________________________________________
res1014b22_branch2b_relu (Activ (None, 14, 14, 256)  0           scale4b22_branch2b[0][0]         
__________________________________________________________________________________________________
res1014b22_branch2c (Conv2D)    (None, 14, 14, 1024) 262144      res1014b22_branch2b_relu[0][0]   
__________________________________________________________________________________________________
bn4b22_branch2c (BatchNormaliza (None, 14, 14, 1024) 4096        res1014b22_branch2c[0][0]        
__________________________________________________________________________________________________
scale4b22_branch2c (Scale)      (None, 14, 14, 1024) 2048        bn4b22_branch2c[0][0]            
__________________________________________________________________________________________________
add_30 (Add)                    (None, 14, 14, 1024) 0           scale4b22_branch2c[0][0]         
                                                                 res4b21_relu[0][0]               
__________________________________________________________________________________________________
res4b22_relu (Activation)       (None, 14, 14, 1024) 0           add_30[0][0]                     
__________________________________________________________________________________________________
res1015a_branch2a (Conv2D)      (None, 7, 7, 512)    524288      res4b22_relu[0][0]               
__________________________________________________________________________________________________
bn5a_branch2a (BatchNormalizati (None, 7, 7, 512)    2048        res1015a_branch2a[0][0]          
__________________________________________________________________________________________________
scale5a_branch2a (Scale)        (None, 7, 7, 512)    1024        bn5a_branch2a[0][0]              
__________________________________________________________________________________________________
res1015a_branch2a_relu (Activat (None, 7, 7, 512)    0           scale5a_branch2a[0][0]           
__________________________________________________________________________________________________
res1015a_branch2b_zeropadding ( (None, 9, 9, 512)    0           res1015a_branch2a_relu[0][0]     
__________________________________________________________________________________________________
res1015a_branch2b (Conv2D)      (None, 7, 7, 512)    2359296     res1015a_branch2b_zeropadding[0][
__________________________________________________________________________________________________
bn5a_branch2b (BatchNormalizati (None, 7, 7, 512)    2048        res1015a_branch2b[0][0]          
__________________________________________________________________________________________________
scale5a_branch2b (Scale)        (None, 7, 7, 512)    1024        bn5a_branch2b[0][0]              
__________________________________________________________________________________________________
res1015a_branch2b_relu (Activat (None, 7, 7, 512)    0           scale5a_branch2b[0][0]           
__________________________________________________________________________________________________
res1015a_branch2c (Conv2D)      (None, 7, 7, 2048)   1048576     res1015a_branch2b_relu[0][0]     
__________________________________________________________________________________________________
res1015a_branch1 (Conv2D)       (None, 7, 7, 2048)   2097152     res4b22_relu[0][0]               
__________________________________________________________________________________________________
bn5a_branch2c (BatchNormalizati (None, 7, 7, 2048)   8192        res1015a_branch2c[0][0]          
__________________________________________________________________________________________________
bn5a_branch1 (BatchNormalizatio (None, 7, 7, 2048)   8192        res1015a_branch1[0][0]           
__________________________________________________________________________________________________
scale5a_branch2c (Scale)        (None, 7, 7, 2048)   4096        bn5a_branch2c[0][0]              
__________________________________________________________________________________________________
scale5a_branch1 (Scale)         (None, 7, 7, 2048)   4096        bn5a_branch1[0][0]               
__________________________________________________________________________________________________
add_31 (Add)                    (None, 7, 7, 2048)   0           scale5a_branch2c[0][0]           
                                                                 scale5a_branch1[0][0]            
__________________________________________________________________________________________________
res5a_relu (Activation)         (None, 7, 7, 2048)   0           add_31[0][0]                     
__________________________________________________________________________________________________
res1015b_branch2a (Conv2D)      (None, 7, 7, 512)    1048576     res5a_relu[0][0]                 
__________________________________________________________________________________________________
bn5b_branch2a (BatchNormalizati (None, 7, 7, 512)    2048        res1015b_branch2a[0][0]          
__________________________________________________________________________________________________
scale5b_branch2a (Scale)        (None, 7, 7, 512)    1024        bn5b_branch2a[0][0]              
__________________________________________________________________________________________________
res1015b_branch2a_relu (Activat (None, 7, 7, 512)    0           scale5b_branch2a[0][0]           
__________________________________________________________________________________________________
res1015b_branch2b_zeropadding ( (None, 9, 9, 512)    0           res1015b_branch2a_relu[0][0]     
__________________________________________________________________________________________________
res1015b_branch2b (Conv2D)      (None, 7, 7, 512)    2359296     res1015b_branch2b_zeropadding[0][
__________________________________________________________________________________________________
bn5b_branch2b (BatchNormalizati (None, 7, 7, 512)    2048        res1015b_branch2b[0][0]          
__________________________________________________________________________________________________
scale5b_branch2b (Scale)        (None, 7, 7, 512)    1024        bn5b_branch2b[0][0]              
__________________________________________________________________________________________________
res1015b_branch2b_relu (Activat (None, 7, 7, 512)    0           scale5b_branch2b[0][0]           
__________________________________________________________________________________________________
res1015b_branch2c (Conv2D)      (None, 7, 7, 2048)   1048576     res1015b_branch2b_relu[0][0]     
__________________________________________________________________________________________________
bn5b_branch2c (BatchNormalizati (None, 7, 7, 2048)   8192        res1015b_branch2c[0][0]          
__________________________________________________________________________________________________
scale5b_branch2c (Scale)        (None, 7, 7, 2048)   4096        bn5b_branch2c[0][0]              
__________________________________________________________________________________________________
add_32 (Add)                    (None, 7, 7, 2048)   0           scale5b_branch2c[0][0]           
                                                                 res5a_relu[0][0]                 
__________________________________________________________________________________________________
res5b_relu (Activation)         (None, 7, 7, 2048)   0           add_32[0][0]                     
__________________________________________________________________________________________________
res1015c_branch2a (Conv2D)      (None, 7, 7, 512)    1048576     res5b_relu[0][0]                 
__________________________________________________________________________________________________
bn5c_branch2a (BatchNormalizati (None, 7, 7, 512)    2048        res1015c_branch2a[0][0]          
__________________________________________________________________________________________________
scale5c_branch2a (Scale)        (None, 7, 7, 512)    1024        bn5c_branch2a[0][0]              
__________________________________________________________________________________________________
res1015c_branch2a_relu (Activat (None, 7, 7, 512)    0           scale5c_branch2a[0][0]           
__________________________________________________________________________________________________
res1015c_branch2b_zeropadding ( (None, 9, 9, 512)    0           res1015c_branch2a_relu[0][0]     
__________________________________________________________________________________________________
res1015c_branch2b (Conv2D)      (None, 7, 7, 512)    2359296     res1015c_branch2b_zeropadding[0][
__________________________________________________________________________________________________
bn5c_branch2b (BatchNormalizati (None, 7, 7, 512)    2048        res1015c_branch2b[0][0]          
__________________________________________________________________________________________________
scale5c_branch2b (Scale)        (None, 7, 7, 512)    1024        bn5c_branch2b[0][0]              
__________________________________________________________________________________________________
res1015c_branch2b_relu (Activat (None, 7, 7, 512)    0           scale5c_branch2b[0][0]           
__________________________________________________________________________________________________
res1015c_branch2c (Conv2D)      (None, 7, 7, 2048)   1048576     res1015c_branch2b_relu[0][0]     
__________________________________________________________________________________________________
bn5c_branch2c (BatchNormalizati (None, 7, 7, 2048)   8192        res1015c_branch2c[0][0]          
__________________________________________________________________________________________________
scale5c_branch2c (Scale)        (None, 7, 7, 2048)   4096        bn5c_branch2c[0][0]              
__________________________________________________________________________________________________
add_33 (Add)                    (None, 7, 7, 2048)   0           scale5c_branch2c[0][0]           
                                                                 res5b_relu[0][0]                 
__________________________________________________________________________________________________
res5c_relu (Activation)         (None, 7, 7, 2048)   0           add_33[0][0]                     
__________________________________________________________________________________________________
avg_pool (AveragePooling2D)     (None, 1, 1, 2048)   0           res5c_relu[0][0]                 
__________________________________________________________________________________________________
flatten_2 (Flatten)             (None, 2048)         0           avg_pool[0][0]                   
__________________________________________________________________________________________________
fc8 (Dense)                     (None, 4)            8196        flatten_2[0][0]                  
==================================================================================================
Total params: 42,719,044
Trainable params: 42,613,700
Non-trainable params: 105,344
__________________________________________________________________________________________________
Epoch 1/10

1/3 [=========>....................] - ETA: 44s - loss: 4.2023 - acc: 0.2000
…
